model.pth (torch, 11975 bytes, 6 tensors)

l1.weight f4 [8, 123]
0.2642413 0.37199202 0.32009336 -0.36502635 0.4265126 0.22280248 0.7584568 -0.046701502
0.70203936 -1.8695138 1.9763166 1.2300164 0.09335806 1.8850962 1.3770369 0.3954269
1.8212488 -0.7771101 0.9091175 1.3392575 -1.745109 -1.7961738 0.48153606 1.82186
-1.484493 2.112777 -0.58982706 -1.7475777 -1.4694815 1.4033298 -1.2377602 1.6416477
-0.16616951 1.9817779 0.4197658 0.48216793 0.26663548 2.0450587 2.0950701 2.4965394
0.85245603 -1.3457588 -0.32945707 -1.3740442 -0.97561175 -1.6736742 1.551138 1.5142423
0.3415069 -1.31799 1.0605994 2.5986743 0.33461142 -2.367602 -0.5164833 0.9014636
1.8644474 1.1255666 -0.56063926 -0.6794697 -0.4733715 0.59308666 0.75191027 -1.698822
0.47072473 1.3245292 0.016224768 0.71572405 0.6280395 -2.098707 -1.655176 0.48404342
2.6985407 0.106813736 0.53105766 0.34237868 -0.03646448 -0.3745155 1.7314434 2.9193192
0.29961026 -2.1261928 0.7213929 2.6467867 0.3663169 -1.5530893 1.6565944 0.9757691
-1.9032109 0.3822178 0.85769325 2.4088113 -0.60820484 0.23059736 1.9687101 1.3312751
0.5577505 1.261804 -1.3663958 -0.074216805 2.6576574 -1.316809 1.1131654 1.1544787
-2.1166527 0.4545615 1.5429782 -0.21624929 1.0310359 -0.46681198 -0.67898786 2.405842
0.25064188 -0.5847097 1.3575039 2.1489186 0.10481549 0.7238869 0.5452039 3.0261462
-2.1541917 0.8463326 0.19721092 0.65317565 1.0479982 0.4129247 0.5818953 0.37129512
0.2647855 0.15920463 -1.0358747 0.69484186 -0.44162804 -1.7632166 -0.87571186 0.5189155
2.0581355 1.2231231 0.41706526 2.373366 1.0382211 1.1574036 0.958719 -2.1232383
-1.3276412 -1.093558 2.041705 -1.4644 -0.056797672 1.9909294 0.9514867 -1.3239534
2.848312 1.7864794 1.4708544 -1.7502736 2.2679756 0.40511787 0.3412429 0.6663417
1.7662828 -1.5348978 2.4583654 -0.51052034 0.56433713 1.7707976 -1.4409384 -0.94167167
0.07603763 1.5278132 -1.1770469 0.63204247 1.4706781 1.4450722 0.021110779 0.2744542
-2.3207967 0.8475581 1.1261601 -0.044244476 1.6188468 1.1400108 1.0419011 1.0959967
1.0254358 0.9504258 -1.2164415 -0.20496804 -2.2615147 1.2598186 0.5468397 0.7572885
-1.1194488 -1.7039517 0.75577456 2.8165236 -0.9342274 0.82044786 0.32983533 -0.963958
0.6504629 -0.06804317 3.1522436 0.3785103 1.4093281 -1.8032224 1.2445349 0.31868732
-0.08129009 1.5177683 1.9063946 -1.416429 0.97528315 -0.97770804 0.13218516 1.0056833
2.4804542 -0.06650087 1.3070424 0.69823056 -0.2541958 0.7054055 -1.7479765 2.562498
0.8982946 1.5356668 1.4320838 -1.6959069 0.33201998 1.8140609 -0.09293392 -1.8815163
1.6862005 -0.27361467 -1.6311061 0.52082163 1.8911676 -0.88094884 1.7595158 -0.4331119
0.7352149 0.9975412 2.5734649 1.5341438 0.69029135 -1.0153661 0.026678873 0.6024985
0.28713465 0.66024643 0.10388459 0.20441906 0.32366645 1.5378671 -0.36920792 2.8388488
00000000: a34a 873e bd75 be3e 47e3 a33e bce4 babe
00000010: dc5f da3e 5526 643e 3a2a 423f 134a 3fbd
00000020: dab8 333f 3a4c efbf f1f7 fc3f 2d71 9d3f
00000030: 8332 bf3d d54a f13f bf42 b03f 6575 ca3e
00000040: ae1e e93f b0f0 46bf edbb 683f ca6c ab3f
00000050: bb5f dfbf 06e9 e5bf e58b f63e b532 e93f
00000060: de03 bebf bd37 0740 e8fe 16bf a0b0 dfbf
00000070: f817 bcbf 50a0 b33f ed6e 9ebf 8321 d23f
00000080: 5728 2abe e6aa fd3f 8beb d63e b7de f63e
00000090: 7284 883e 3ee2 0240 a115 0640 4dc7 1f40
000000a0: 8f3a 5a3f d341 acbf 99ae a8be aee0 afbf
000000b0: b1c1 79bf f53a d6bf b18b c63f b1d2 c13f
000000c0: fed9 ae3e e5b3 a8bf b9c1 873f ae50 2640
000000d0: 3052 ab3e cb86 17c0 4038 04bf 52c6 663f
000000e0: 36a6 ee3f 9112 903f 0e86 0fbf baf1 2dbf
000000f0: c05d f2be 87d4 173f 317d 403f 0073 d9bf
00000100: d502 f13e 2c8a a93f cee9 843c b139 373f
00000110: 32c7 203f 3751 06c0 cfdc d3bf 8ad4 f73e
00000120: e4b4 2c40 29c1 da3d 65f3 073f 424c af3e
00000130: c75b 15bd 7fc0 bfbe f09f dd3f 20d6 3a40
00000140: 8466 993e 8b13 08c0 35ad 383f f464 2940
00000150: e48d bb3e a1cb c6bf 490b d43f 01cc 793f
00000160: 6a9c f3bf 0db2 c33e c991 5b3f f729 1a40
00000170: 50b3 1bbf b721 6c3e b1fe fb3f 3967 aa3f
00000180: bdc8 0e3f cb82 a13f 0fe6 aebf fbfe 97bd
00000190: 0f17 2a40 338d a8bf 347c 8e3f f5c5 933f
000001a0: 3d77 07c0 49bc e83e 4f80 c53f 7470 5dbe
000001b0: fcf8 833f fb01 efbe 26d2 2dbf 51f9 1940
000001c0: 2254 803e 89af 15bf b0c2 ad3f e287 0940
000001d0: 81a9 d63d a750 393f 7c92 0b3f 61ac 4140
000001e0: 47de 09c0 41a9 583f a9f1 493e 8536 273f
000001f0: ce24 863f de6a d33e 17f7 143f 651a be3e
00000200: f791 873e 8a06 233e 8b97 84bf 28e1 313f
00000210: 121d e2be 15b1 e1bf a72e 60bf a5d7 043f
00000220: 7eb8 0340 4c8f 9c3f 9489 d53e 3be5 1740
00000230: 6ee4 843f cd25 943f 9c6e 753f 23e3 07c0
00000240: 26f0 a9bf b5f9 8bbf 4bab 0240 7671 bbbf
00000250: ada4 68bd c6d6 fe3f a294 733f 4e77 a9bf
00000260: be4a 3640 5bab e43f f544 bc3f f708 e0bf
00000270: 8326 1140 9c6b cf3e 64b7 ae3e 5f95 2a3f
00000280: 8e15 e23f 8877 c4bf dc55 1d40 76b1 02bf
00000290: 6678 103f 7fa9 e23f ab70 b8bf 6511 71bf
000002a0: 9eb9 9b3d 628f c33f 79a9 96bf 89cd 213f
000002b0: 2e3f bc3f 20f8 b83f 83f0 ac3c 4385 8c3e
000002c0: ef87 14c0 91f9 583f 0426 903f b239 35bd
000002d0: 5f36 cf3f e0eb 913f 045d 853f 9f49 8c3f
000002e0: 7b41 833f 1b4f 733f 5bb4 9bbf 24e3 51be
000002f0: a8bc 10c0 bc41 a13f b0fd 0b3f a9dd 413f
00000300: 194a 8fbf 171b dabf 717a 413f ec41 3440
00000310: 8729 6fbf df08 523f 2de0 a83e f4c5 76bf
00000320: bd84 263f 385a 8bbd 5cbe 4940 1acc c13e
00000330: dd64 b43f fecf e6bf eb4c 9f3f fc2a a33e
00000340: 6b7b a6bd 3b46 c23f bd04 f43f 8c4d b5bf
00000350: 28ac 793f 134b 7abf 8c5b 073e 3bba 803f
00000360: c3bf 1e40 9c31 88bd 2a4d a73f 3dbf 323f
00000370: f425 82be 7495 343f b2bd dfbf f8ff 2340
00000380: a3f6 653f bb90 c43f 864e b73f 7a13 d9bf
00000390: 86fe a93e 2633 e83f 2454 bebd 87d5 f0bf
000003a0: 6bd5 d73f 3917 8cbe 16c8 d0bf 9154 053f
000003b0: c811 f23f dd85 61bf d037 e13f d8c0 ddbe
000003c0: 0b37 3c3f dc5e 7f3f a6b3 2440 d35e c43f
000003d0: efb6 303f 84f7 81bf a78d da3c 573d 1a3f
000003e0: 5003 933e e905 293f 72c1 d43d 3b53 513e
000003f0: 9cb7 a53e d4d8 c43f d208 bdbe b3af 3540

l1.bias f4 [8]
1.5403622 1.9552419 1.3750703 2.1948335 1.8802388 1.6323218 1.4487445 3.9166179
00000000: 972a c53f 5e45 fa3f 4e02 b03f 2778 0c40
00000010: aaab f03f ecef d03f 7670 b93f dea9 7a40

l2.weight f4 [8, 8]
-4.215213 1.8997502 2.4449244 3.912914 0.30829105 -3.0178695 3.918613 5.8473163
5.7503047 5.604257 -2.7517312 -0.08326098 3.7124205 1.0950522 2.951045 0.8660941
0.4231502 -2.9761233 3.693988 3.181476 4.5549173 3.620358 5.5254006 -1.8589758
-0.13153951 0.20805109 -0.15583038 -0.014970012 0.013198117 -0.27141827 0.012833041 -0.3345743
0.25769645 0.08499135 -0.26743028 0.09218683 -0.18707544 -0.23293248 -0.32557505 -0.31034738
-0.17016111 -0.2642448 -0.34224337 0.028718103 -0.122377165 -0.32794577 0.17437412 -0.20008996
3.2761157 -0.94245064 -0.6788689 5.0093274 -0.10041226 6.1041975 -3.1534271 3.1696715
0.8848732 3.1799765 6.427296 -2.6403782 4.036093 1.6372067 0.5510516 0.94377095
00000000: 06e3 86c0 042b f33f a479 1c40 2f6d 7a40
00000010: 53d8 9d3e c624 41c0 8eca 7a40 371d bb40
00000020: 7f02 b840 1356 b340 5d1c 30c0 bc84 aabd
00000030: 4c98 6d40 ac2a 8c3f ecdd 3c40 58b8 5d3f
00000040: 25a7 d83e ce78 3ec0 4d6a 6c40 4e9d 4b40
00000050: e2c1 9140 f2b3 6740 15d0 b040 ebf2 edbf
00000060: 4bb2 06be 580b 553e 0092 1fbe c844 75bc
00000070: ea3c 583c 56f7 8abe ad41 523c 534d abbe
00000080: caf0 833e f20f ae3d 9fec 88be 73cc bc3d
00000090: b490 3fbe da85 6ebe c6b1 a6be dae5 9ebe
000000a0: b73e 2ebe 184b 87be 863a afbe 3a42 eb3c
000000b0: e1a0 fabd 82e8 a7be 218f 323e 62e4 4cbe
000000c0: e1ab 5140 7244 71bf 5aca 2dbf 694c a040
000000d0: f1a4 cdbd 9655 c340 c0d1 49c0 e6db 4a40
000000e0: 0d87 623f bc84 4b40 69ac cd40 f5fb 28c0
000000f0: ad27 8140 fd8f d13f b811 0d3f f99a 713f

l2.bias f4 [8]
2.102949 0.91771567 0.00034983165 -0.23028746 -0.23679212 -0.08116261 2.069446 0.9063073
00000000: b796 0640 6aef 6a3f 9c69 b739 7ad0 6bbe
00000010: a279 72be 9538 a6bd ce71 0440 c103 683f

l3.weight f4 [75, 8]
-3.4035385 -1.3734683 0.92557216 0.15407868 0.14492518 0.33217445 0.39264208 -0.020775296
0.6486042 -2.1276915 -0.5113374 -0.004422553 0.27197796 0.207059 -1.3251313 0.2924855
-2.4313304 -1.0487801 0.0011645381 -0.100412965 0.066525765 0.26538345 0.5856034 -0.17702132
-2.8805807 0.61244696 -3.678989 0.045710996 -0.257868 -0.31227708 0.5669263 0.668496
-3.4753702 0.39589804 0.33881143 -0.15746121 -0.099181734 0.00044018167 -1.2273458 0.7866289
-0.15860851 0.0656463 -0.79973704 -0.17780529 0.107363366 0.098531745 -1.2825893 -0.39995438
0.25017995 -0.2997318 -0.66524756 0.18790464 -0.115610614 0.22990991 -0.7437771 -1.6772481
0.026277509 -1.9023263 0.8503942 -0.1002019 -0.017431725 -0.2775024 0.19219881 -3.738568
-0.44035563 -1.8314369 0.7253866 -0.17286761 -0.06230324 0.15775767 -1.1601521 0.1775188
-0.7868066 -1.494619 -0.020018125 -0.059696164 -0.18935221 0.018713158 -0.009873125 -0.23476878
-0.79859436 -0.29285783 -1.8530428 0.12403354 -0.16741382 0.023074135 -0.37884745 0.49943113
0.8495784 -1.8870921 0.2601764 0.04226667 0.25208986 -0.008801231 -0.58784443 -2.6203973
-1.2987639 -0.23320042 0.17638654 -0.046006445 0.20891379 -0.2523202 -0.4598314 -0.57873315
0.05146025 -0.48763487 -1.9458922 -0.20453253 -0.20552169 0.15538569 -0.39978847 -0.20471437
0.7309056 -0.6897398 -2.525635 0.21191524 0.14929307 0.26445144 -0.09118817 -1.7469122
1.267755 -3.0996037 -3.7598517 -0.10844321 0.1584603 0.13759133 1.0225838 -1.8323487
-0.63629633 -0.22832885 -0.14458774 0.07947193 -0.24571292 -0.25476152 -1.3827502 0.13941322
-0.3516451 0.33483204 -1.8911247 -0.2506513 -0.13335785 0.23666054 -1.8588437 0.72159183
-0.451753 -0.97987515 0.48170027 -0.17717806 -0.04862895 -0.21299411 -0.6765437 -0.8983426
0.099575855 0.21435125 -3.6791337 -0.012880119 0.23020065 0.1511933 -0.042702835 -0.9311747
-2.0729353 -0.15670173 -0.5449849 -0.17994863 0.08454043 -0.19027776 -0.15657255 0.23671396
-2.2255204 -0.32336673 0.21522166 0.1417106 0.0939218 -0.10684639 0.9184702 -3.0113356
-0.98241526 0.7071883 -3.7048013 -0.29119813 -0.27921385 0.29044914 0.15142407 -0.6372461
-1.5418752 -0.15855455 1.0227436 0.24853098 -0.31728703 0.0027173336 -2.1492293 0.33199906
-0.26289874 -0.798061 0.41274992 -0.35344756 0.24440742 0.28176743 -2.464806 0.59854144
0.82348186 -0.039062407 -3.7784798 -0.082194194 0.053800453 0.0308544 -0.8499351 -0.6254101
0.6142098 -1.8789217 -0.50890553 -0.34623605 -0.19136573 -0.078585155 0.69875103 -4.167533
-0.18636374 -1.1779267 -0.13029559 0.17119755 -0.14052965 0.0039379485 -0.03254793 -1.3699468
1.3762385 -1.7300702 -3.9754946 -0.2516618 -0.20515771 0.18512648 -0.3239683 -0.42867526
-0.84055686 -0.340797 0.17904061 -0.23337856 0.121347055 -0.2606431 0.019944731 -2.452748
0.20055926 -0.19810961 0.009493134 0.0011753491 -0.0762018 -0.14020263 -2.3891587 -0.29947713
-0.9710266 0.07914631 -0.9447839 -0.2606673 -0.22712506 0.34636799 0.66973424 -3.502194
00000000: 93d3 59c0 cfcd afbf 4cf2 6c3f cdc6 1d3e
00000010: 4467 143e c512 aa3e 6208 c93e f430 aabc
00000020: ed0a 263f 192c 08c0 02e7 02bf 10eb 90bb
00000030: b240 8b3e 4607 543e e79d a9bf a9c0 953e
00000040: eb9a 1bc0 6d3e 86bf 6aa3 983a 50a5 cdbd
00000050: a93e 883d 57e0 873e 1bea 153f 1445 35be
00000060: 6f5b 38c0 53c9 1c3f 8e74 6bc0 743b 3b3d
00000070: 4607 84be c8e2 9fbe 1522 113f 8e22 2b3f
00000080: 776c 5ec0 26b3 ca3e b178 ad3e 833d 21be
00000090: cb1f cbbd 2fc8 e639 ab19 9dbf 8360 493f
000000a0: 456a 22be 9171 863d 91bb 4cbf 9712 36be
000000b0: 53e1 db3d 03cb c93d e32b a4bf d2c6 ccbe
000000c0: 9617 803e 7276 99be aa4d 2abf 136a 403e
000000d0: 42c5 ecbd 816d 6b3e 2d68 3ebf 11b0 d6bf
000000e0: ee43 d73c 6e7f f3bf 6fb3 593f a736 cdbd
000000f0: facc 8ebc cb14 8ebe c4cf 443e b344 6fc0
00000100: 4b76 e1be 866c eabf f0b2 393f 3504 31be
00000110: af31 7fbd 3a8b 213e dd7f 94bf 7dc7 353e
00000120: 286c 49bf ad4f bfbf 0dfd a3bc f783 74bd
00000130: 8ce5 41be 564c 993c e3c2 21bc 3a67 70be
00000140: ae70 4cbf 76f1 95be 8230 edbf 4c05 fe3d
00000150: 876e 2bbe f805 bd3c 4bf8 c1be 70b5 ff3e
00000160: f87d 593f 3c8c f1bf d735 853e d11f 2d3d
00000170: ec11 813e 0a33 10bc f97c 16bf 97b4 27c0
00000180: e53d a6bf 17cc 6ebe ac9e 343e 4171 3cbd
00000190: 7fed 553e 1d30 81be 056f ebbe db27 14bf
000001a0: fcc7 523d 47ab f9be ff12 f9bf fa70 51be
000001b0: 4774 52be 6d1d 1f3e 13b1 ccbe a5a0 51be
000001c0: a11c 3b3f ca92 30bf 01a4 21c0 4f00 593e
000001d0: 48e0 183e 2e66 873e ddc0 babd d29a dfbf
000001e0: cc45 a23f e85f 46c0 69a1 70c0 7917 debd
000001f0: 6b43 223e bee4 0c3e 07e4 823f 678a eabf
00000200: 51e4 22bf 0acf 69be cf0e 14be 2ec2 a23d
00000210: 2b9c 7bbe 1a70 82be f5fd b0bf 57c2 0e3e
00000220: d40a b4be 1b6f ab3e 6010 f2bf 5e55 80be
00000230: f68e 08be 2457 723e 97ee edbf 3eba 383f
00000240: 2b4c e7be 19d9 7abf 6ba1 f63e 2a6e 35be
00000250: 262f 47bd 211b 5abe f831 2dbf c8f9 65bf
00000260: 6dee cb3d e57e 5b3e ed76 6bc0 2207 53bc
00000270: b8b9 6b3e 6bd2 1a3e 2be9 2ebd 7761 6ebf
00000280: f9aa 04c0 6b76 20be 2184 0bbf 7444 38be
00000290: 8823 ad3d 2cd8 42be 8e54 20be 2565 723e
000002a0: ed6e 0ec0 5390 a5be 1163 5c3e 951c 113e
000002b0: 135a c03d 48d2 dabd dd20 6b3f b9b9 40c0
000002c0: 917f 7bbf 4b0a 353f 771b 6dc0 ec17 95be
000002d0: 1ef5 8ebe c0b5 943e e90e 1b3e 8f22 23bf
000002e0: 2b5c c5bf 205c 22be 43e9 823f e87e 7e3e
000002f0: 7273 a2be 4b15 323b f98c 09c0 c8fb a93e
00000300: aa9a 86be ba4d 4cbf f553 d33e 14f7 b4be
00000310: f045 7a3e d243 903e 62bf 1dc0 033a 193f
00000320: b5cf 523f e7ff 1fbd 9dd2 71c0 6e55 a8bd
00000330: dd5d 5c3d 5ec2 fc3c 5995 59bf e01a 20bf
00000340: da3c 1d3f 8280 f0bf a247 02bf da45 b1be
00000350: 61f5 43be 41f1 a0bd 59e1 323f 6e5c 85c0
00000360: 23d6 3ebe 4dc6 96bf 356c 05be 694e 2f3e
00000370: 01e7 0fbe e809 813b fa50 05bd 6b5a afbf
00000380: 9528 b03f f172 ddbf 816e 7ec0 d1d9 80be
00000390: dd14 52be cc91 3d3e 2cdf a5be 537b dbbe
000003a0: bc2e 57bf f27c aebe 6c56 373e cafa 6ebe
000003b0: ce84 f83d 0373 85be 2263 a33c d3f9 1cc0
000003c0: 685f 4d3e 3fdd 4abe 1789 1b3c 2c0e 9a3a
000003d0: b00f 9cbd 4791 0fbe fae7 18c0 1155 99be
000003e0: 3395 78bf 7617 a23d 5cdd 71bf 2f76 85be
000003f0: 7993 68be 2557 b13e b473 2b3f f223 60c0

l3.bias f4 [75]
-0.025451014 0.25237232 0.14541754 0.46398503 -0.063660845 -0.12780531 0.23580116 0.19853026
-0.003747005 -0.1326889 0.07820602 0.17432225 -0.56399167 -0.33086184 0.17364162 0.455877
-0.50651145 -0.13979405 -0.50054884 -0.2254558 0.32378203 0.08223732 0.3326623 0.16670164
-0.33802018 -0.2897139 0.32824507 -0.07122952 0.61311126 -0.025608405 -0.29839402 0.25411853
-0.09790797 -0.13391884 -0.113453284 -0.43255424 0.014615864 0.080598205 0.20791093 -0.41322175
0.007094318 -0.09901021 -0.2856143 -0.27017528 -0.012175694 -0.22217073 0.2968003 -0.08794655
-0.08171361 0.10711035 -0.31450662 -0.051863335 -0.20279403 -0.48964217 -0.046114963 0.24273796
0.030728487 0.15603602 -0.61431456 -0.22025347 0.29747114 -0.34619686 0.5247586 -0.29406023
0.30223176 -5.4220356e-05 -0.25761572 -0.025155297 -0.04062541 0.23567916 0.25555006 -0.3847483
0.59049016 0.45979667 0.31652904
00000000: a57e d0bc f236 813e 56e8 143e 728f ed3e
00000010: 9e60 82bd 65df 02be dc75 713e 844b 4b3e
00000020: 5090 75bb 99df 07be 7a2a a03d 8881 323e
00000030: c261 10bf b966 a9be 1ccf 313e b668 e93e
00000040: bcaa 01bf 2c26 0fbe f823 00bf e3dd 66be
00000050: c2c6 a53e 0a6c a83d b752 aa3e d6b3 2a3e
00000060: fb10 adbe 6155 94be bd0f a83e c8e0 91bd
00000070: dcf4 1c3f b8c8 d1bc 1ac7 98be d31b 823e
00000080: f983 c8bd 0522 09be 325a e8bd c077 ddbe
00000090: 6077 6f3c ac10 a53d 9ae6 543e cd91 d3be
000000a0: 7477 e83b ddc5 cabd 0a3c 92be 6a54 8abe
000000b0: 907c 47bc b980 63be 35f6 973e 521d b4bd
000000c0: 7759 a7bd ac5c db3d 0307 a1be a66e 54bd
000000d0: 3da9 4fbe 61b2 fabe 0be3 3cbd 4d90 783e
000000e0: 4fba fb3c e8c7 1f3e b843 1dbf 208a 61be
000000f0: 234e 983e b740 b1be 9456 063f 108f 96be
00000100: 1fbe 9a3e aa6a 63b8 35e6 83be 7b12 cebc
00000110: d466 26bd e155 713e 75d7 823e bbfd c4be
00000120: 5d2a 173f 786a eb3e 1810 a23e
